…
        caption: [1D Fourier features for radius: compare $r$ vs $log(r+epsilon)$ as input.],
      )
    ],
  )
]

#slide(title: [VIN: EVL Neck Feature Diagnostics (frozen backbone)])[
  #figure(
    image(fig_path + "impl/vin/vin_evl_features.png", width: 94%),
    caption: [Mean absolute feature magnitude for `neck/occ_feat` and `neck/obb_feat` (mid-slice + histogram).],
  )
]

#slide(title: [VIN: torchsummary (ShellShPoseEncoder)])[
  #color-block(title: [ShellShPoseEncoder (SH + 1D Fourier radius)])[
    #text(size: 12pt)[
      ```text
      Layer (type:depth-idx)                   Output Shape              Param #
      ├─Sequential: 1-1                        [-1, 4, 32]               --
      │    ├─Linear: 2-1                       [-1, 4, 32]               544
      │    ├─GELU: 2-2                         [-1, 4, 32]               --
      │    └─Linear: 2-3                       [-1, 4, 32]               1,056
      ├─Sequential: 1-2                        [-1, 4, 32]               --
      │    ├─Linear: 2-4                       [-1, 4, 32]               544
      │    ├─GELU: 2-5                         [-1, 4, 32]               --
      │    └─Linear: 2-6                       [-1, 4, 32]               1,056
      ├─FourierFeatures: 1-3                   [-1, 4, 17]               8
      ├─Sequential: 1-4                        [-1, 4, 32]               --
      │    ├─Linear: 2-7                       [-1, 4, 32]               576
      │    ├─GELU: 2-8                         [-1, 4, 32]               --
      │    └─Linear: 2-9                       [-1, 4, 32]               1,056
      ├─Sequential: 1-5                        [-1, 4, 32]               --
      │    ├─Linear: 2-10                      [-1, 4, 64]               128
      │    ├─GELU: 2-11                        [-1, 4, 64]               --
      │    └─Linear: 2-12                      [-1, 4, 32]               2,080

      Total params: 7,048
      Trainable params: 7,048
      ```
    ]
  ]
]

#slide(title: [VIN: torchsummary (VinScorerHead)])[
  #color-block(title: [VinScorerHead (MLP + CORAL)])[
    #text(size: 12pt)[
      ```text
      Layer (type:depth-idx)                   Output Shape              Param #
      ├─Sequential: 1-1                        [-1, 256]                 --
      │    ├─Linear: 2-1                       [-1, 256]                 131,328
      │    ├─GELU: 2-2                         [-1, 256]                 --
      │    ├─Linear: 2-3                       [-1, 256]                 65,792
      │    └─GELU: 2-4                         [-1, 256]                 --
      ├─CoralLayer: 1-2                        [-1, 14]                  --
      │    └─CoralLayer: 2-5                   [-1, 14]                  --
      │         └─Linear: 3-1                  [-1, 1]                   256

      Total params: 197,376
      Trainable params: 197,376
      ```
    ]
  ]
]

#slide(title: [Ordinal Binning: Thresholds for K classes])[
  #grid(
    columns: (1fr, 1fr),
    gutter: 1cm,
    [
      #color-block(title: [Why bin RRI?])[
        Raw #RRI is noisy and can be hard to regress directly.
        VIN-NBV discretizes #RRI into ordinal bins and learns with a ranking-aware loss (CORAL).
…
